app/src/main/ml/anomaly_detection_model.tflite (tflite, 1596 bytes, 3 tensors)

sequential_4/dense_32/BiasAdd/ReadVariableOp/resource f4 [4]
9.587623e-09 -1.0432668e-09 5.125953e-09 -1.8193114e-10
00000000: d0b6 2432 b062 8fb0 5c20 b031 1009 48af

sequential_4/dense_32/MatMul1 f4 [4, 4]
1.0 -4.325331e-08 -1.358891e-07 -4.3479318e-08 -1.8391066e-10 1.0 -1.6459276e-10 2.8739103e-10
-1.4060966e-09 6.585477e-10 1.0 1.7878827e-09 -2.946614e-10 -1.5331089e-10 6.83092e-11 1.0
00000000: 0000 803f 84c5 39b3 e9e8 11b4 04be 3ab3
00000010: 4036 4aaf 0000 803f bef8 34af b1fe 9d2f
00000020: a040 c1b0 2d05 3530 0000 803f 88b9 f530
00000030: e8fd a1af 2e91 28af a936 962e 0000 803f

sequential_5/dense_33/MatMul f4 [4, 4]
-0.6725304 -0.70661783 0.19205266 -0.24458301 -0.033563614 -0.53255713 0.09126699 0.722704
-0.5360913 -0.5967469 -0.7327264 0.18372923 -0.68119854 0.0050745606 -0.6438767 0.045238197
00000000: f42a 2cbf e8e4 34bf 74a9 443e f873 7abe
00000010: 007a 09bd aa55 08bf 30ea ba3d 2103 393f
00000020: 483d 09bf 68c4 18bf f593 3bbf 8423 3c3e
00000030: 0763 2ebf 8048 a63b 1ad5 24bf b04b 393d
